models/light-gcn.pt (torch, 639014 bytes, 1 tensors)

embedding.weight f4 [2490, 64]
00000000: ffe2 71be 1436 c5bf 6218 48bf e081 0b3f
00000010: d5be 16bf 8f5b 6cbf 0b5f ff3d 1ae6 9cbe
00000020: ca0b bd3e 9f92 0f3f ee93 8c3f 9d51 37bf
00000030: ff32 82bf ea09 9fbc bdfa d43f 7641 573f
00000040: 3469 7f3e 7663 5b3f 3b53 12be 9712 953f
00000050: 3f09 cabe bd8d 36bf 2810 c8bc 687d 6a3e
00000060: acc7 52bf 463e 07bf 4bce cfbf 900e 9bbe
00000070: 605f 763f 03f7 e03d a9e9 1940 f0c9 8dbf
00000080: 474a 4c3e d38e 143f a8e8 be3e f841 863f
00000090: 672a 0ebf 9add d8be 7045 d9be c606 d3bd
000000a0: f7d8 033f f1da 9dbd 0ac5 8b3f 73b0 85bd
000000b0: 924e 96be 30d5 fdbe 6bca f93e 5e95 08bf
000000c0: fc93 2dbf 1bc2 b43e fe29 4fbf b266 7cbf
000000d0: 099c 373d 35b6 073e b677 d3bf aed7 543f
000000e0: 6d17 673e 4242 25bf 13b0 4bbf f2f3 36be
000000f0: 2c93 aabe 00bf 433e ba0e 92bf e127 d63e
00000100: 8054 4a3f f17c 403f 1437 303e 2b85 c6be
00000110: ef80 2b3d 62ec fb3f 8d76 93bf bb9e 103f
00000120: 1c06 ea3e 2903 103d 3ec7 c2bd ce88 1e3f
00000130: 0f39 0440 0417 403e a195 80bf 8722 253f
00000140: c22b 2f3f dab9 38be c2d9 663f cb96 e7bf
00000150: 3396 3a3e 026e 42bf 0c07 79bf 1bf0 1cbf
00000160: d807 d93d b8a5 b23e 9190 d13f f9ef 25c0
00000170: 8c10 84bf 0917 4b3e 8341 b63f 59c5 0a3e
00000180: c253 c23f a84e 1dbf 1cc9 df3e 9c52 913e
00000190: e1cb 91bf 97a1 c83e f9b2 953f bd8a f33f
000001a0: 2f64 67be 6878 05bf 547c e3be ea27 243f
000001b0: 2caf 063c 07a0 713f 3763 a73e 42f3 88bf
000001c0: 9ca8 c03f 5e75 87be 9250 903e 3073 50bf
000001d0: 8378 2dbd 82d9 02bf 51e2 69bf a225 d6be
000001e0: 6465 8b3f c7eb debe 2d9b 093f cb82 35bf
000001f0: de17 0540 068d 8dbf 8864 d13f 2774 83be
00000200: a935 873f 6576 573f e154 6d3e 8472 45be
00000210: 19d6 ccbe 54ea 8dbf ad69 ee3e f6fa 523d
00000220: fa7a 1bbf d855 26bf d171 983f 7d16 11bf
00000230: 1eb0 a4be 338f 10be 7038 983d 9ad1 ab3f
00000240: 8c59 013e 899d b43f 8185 fe3e 9609 69be
00000250: 734e 7fbf ade4 8ebe 949c 1bbf feb4 93bd
00000260: 528a 1e40 9837 edbf 4cd9 803f 9722 1d3f
00000270: a153 18be 3642 503f 94e5 a9bf 616f 16be
00000280: 55c3 2fbf a967 00bf 2282 03be 2f6f 8abf
00000290: ab4f 60be 7e57 af3f b810 913f f360 d0bf
000002a0: 0937 8ebe d151 51be dbf9 4ebe b62b b43f
000002b0: ff1f a93e 422f 8ebe f486 f9be c6fe dabd
000002c0: 4e09 26bd 6073 b1bf 7c0d 6abe 2b73 c23f
000002d0: b02f 43be 0938 393e 1ec6 523f a952 63be
000002e0: abac 1ebe 7925 a0be b8d5 08c0 c51c 7abf
000002f0: f368 60bd 5ca8 31bf 59f8 d0be 6150 fd3d
00000300: 6b59 7e3e bc60 b53c 54fd 033f c22e c1be
00000310: f15c 4ebf 9a2f 97bf 4c9a 033f ea12 853f
00000320: 6061 133f 17f9 efbe 4a83 bc3f 2a12 05bf
00000330: d185 51bf 0db3 ebbe 978f 453d 7d00 ad3e
00000340: d7ce 603e a245 963f 517e d53e 0c11 05c0
00000350: 08b3 c8be ec1d 9bbf 64f8 97bf c1ef 643f
00000360: 5172 b03f 7fdf 90bf 47f3 1940 8c30 b33f
00000370: 18ae 973e 4c39 673f 6442 963f eb56 c2bf
00000380: 3006 ab3f 2b76 593f bcb7 923f a5bb 913f
00000390: 4898 0a3e 71d2 c6be eb8e 8fbf 7db6 21c0
000003a0: 4653 d4bf f0cb 7b3f cb15 28c0 66f5 b03f
000003b0: d959 3bbf afbc 64bf a9c1 8fbf d47f 423f
000003c0: 7803 8dbe 9594 f43d 89da 96bf 3532 bf3f
000003d0: b5b6 fe3c ec27 1d3c d7d4 593f ad06 92bf
000003e0: 6261 69bf 83ac 983e b6ab 13c0 fc4c 0ec0
000003f0: 3173 883f 090e 343f 6dce 953e 9b2a 19bf
-0.23621748 -1.5407128 -0.78162205 0.5449505 -0.58884937 -0.9232721 0.124693 -0.30644304
0.36923057 0.560831 1.0982645 -0.71608907 -1.0171813 -0.019413907 1.6639019 0.8408426
0.24942476 0.8569864 -0.14289562 1.1646298 -0.3946018 -0.71310025 -0.024421766 0.22899401
-0.82335925 -0.52829397 -1.6234831 -0.30284548 0.9623928 0.10984614 2.4048865 -1.1077251
0.1995021 0.5803043 0.37286878 1.0488882 -0.5553345 -0.4235657 -0.4243579 -0.10304026
0.5150294 -0.077077754 1.0919507 -0.06527796 -0.2935682 -0.49576712 0.48787245 -0.53352916
-0.6780393 0.3530434 -0.8092345 -0.985942 0.04482654 0.132531 -1.6520908 0.831416
0.2256753 -0.64554226 -0.7956554 -0.17866495 -0.33315408 0.1911583 -1.1410744 0.418273
0.79035187 0.75190645 0.1720851 -0.38773474 0.041871008 1.9681513 -1.1520554 0.56492203
0.45707786 0.035159264 -0.09510659 0.619275 2.0659826 0.1875878 -1.0045663 0.6450581
0.68426144 -0.18039647 0.9017602 -1.8092893 0.18221359 -0.7594911 -0.9727638 -0.6130387
0.10597199 0.34892058 1.6372243 -2.5927718 -1.031755 0.19833006 1.4238743 0.13551845
1.5181811 -0.61448145 0.43708122 0.28383338 -1.1390344 0.39185783 1.1695243 1.9026715
-0.22596811 -0.5213685 -0.44430792 0.64123404 0.008220475 0.9438481 0.32692882 -1.0699236
1.5051455 -0.26456732 0.2818647 -0.8142576 -0.042351257 -0.5111314 -0.91360956 -0.41825587
1.0890317 -0.4353926 0.53752404 -0.709027 2.0795817 -1.1058662 1.6358805 -0.25674555
1.0563251 0.8416503 0.2317691 -0.19281965 -0.40007094 -1.1087136 0.46565 0.051508866
-0.6073452 -0.6497474 1.1909734 -0.5667494 -0.32165617 -0.14117126 0.074326396 1.342334
0.12631816 1.4110576 0.4971123 -0.22757563 -0.9972908 -0.2790884 -0.60785794 -0.07212256
2.4771924 -1.8532591 1.0066314 0.61380905 -0.14875652 0.8135103 -1.3273187 -0.14690925
-0.6865743 -0.5015817 -0.1284261 -1.081518 -0.21905391 1.3698575 1.1333227 -1.6279587
-0.27776363 -0.20441367 -0.202125 1.407584 0.33032224 -0.2777043 -0.48735774 -0.106931254
-0.040536217 -1.3863335 -0.22856706 1.5191396 -0.1906116 0.18087782 0.8233355 -0.22199501
-0.15495555 -0.3127859 -2.1380444 -0.9770015 -0.054787587 -0.6939752 -0.40814474 0.12368847
0.24838798 0.022140853 0.51558423 -0.37730986 -0.8061057 -1.1811402 0.51407313 1.0396397
0.5757046 -0.46869728 1.4727566 -0.5198084 -0.8184481 -0.46035042 0.04823264 0.33789435
0.21953903 1.174 0.41697934 -2.0791655 -0.3919909 -1.2118506 -1.1872678 0.89428335
1.3784887 -1.1318206 2.4054735 1.399919 0.2962501 0.90321803 1.1739011 -1.5182775
1.3361263 0.84945935 1.1462321 1.138539 0.13534653 -0.3883243 -1.121549 -2.5267632
-1.6587913 0.9835806 -2.6263301 1.382489 -0.7318397 -0.8935041 -1.1230975 0.759763
-0.2754171 0.11942402 -1.1785442 1.4937197 0.03109298 0.009592038 0.8509039 -1.1408287
-0.9116422 0.29819116 -2.3073554 -2.2234488 1.0660154 0.70333916 0.29259053 -0.59830636
