models/light-gcn.pt (torch, 639014 bytes, 1 tensors)

embedding.weight f4 [2490, 64]
00000000: f5e2 71be 1536 c5bf 5f18 48bf e181 0b3f
00000010: d7be 16bf 8c5b 6cbf 065f ff3d 12e6 9cbe
00000020: c80b bd3e 9c92 0f3f ee93 8c3f a051 37bf
00000030: fe32 82bf f109 9fbc bffa d43f 7241 573f
00000040: 0f69 7f3e 7b63 5b3f 6953 12be 9512 953f
00000050: 3e09 cabe bd8d 36bf 4110 c8bc 887d 6a3e
00000060: afc7 52bf 443e 07bf 4bce cfbf 980e 9bbe
00000070: 625f 763f 08f7 e03d a8e9 1940 f1c9 8dbf
00000080: 474a 4c3e cf8e 143f a0e8 be3e f741 863f
00000090: 712a 0ebf 90dd d8be 7145 d9be c206 d3bd
000000a0: fcd8 033f dbda 9dbd 0ac5 8b3f 6ab0 85bd
000000b0: 904e 96be 1ed5 fdbe 5eca f93e 6195 08bf
000000c0: 0294 2dbf 1dc2 b43e 022a 4fbf a866 7cbf
000000d0: f69b 373d 33b6 073e b277 d3bf b1d7 543f
000000e0: 6917 673e 3842 25bf 14b0 4bbf 10f4 36be
000000f0: 3793 aabe e3be 433e ba0e 92bf e227 d63e
00000100: 7d54 4a3f e47c 403f fd36 303e 3a85 c6be
00000110: 0981 2b3d 5eec fb3f 8d76 93bf bc9e 103f
00000120: 1606 ea3e cc02 103d 29c7 c2bd c688 1e3f
00000130: 1139 0440 fd16 403e 9695 80bf 8322 253f
00000140: c12b 2f3f d4b9 38be bbd9 663f ca96 e7bf
00000150: 2296 3a3e 016e 42bf 0e07 79bf 1bf0 1cbf
00000160: f907 d93d bba5 b23e 9390 d13f f9ef 25c0
00000170: 8d10 84bf fe16 4b3e 7c41 b63f 68c5 0a3e
00000180: c153 c23f ab4e 1dbf 1ec9 df3e 9752 913e
00000190: e2cb 91bf a2a1 c83e fcb2 953f c08a f33f
000001a0: 2c64 67be 6478 05bf 4f7c e3be ec27 243f
000001b0: 35b0 063c 0aa0 713f 4263 a73e 40f3 88bf
000001c0: 9ca8 c03f 5575 87be 9a50 903e 3473 50bf
000001d0: de78 2dbd 84d9 02bf 50e2 69bf 8f25 d6be
000001e0: 6665 8b3f d5eb debe 289b 093f cd82 35bf
000001f0: e117 0540 088d 8dbf 8564 d13f 2b74 83be
00000200: a735 873f 6c76 573f df54 6d3e 8172 45be
00000210: 15d6 ccbe 52ea 8dbf b169 ee3e b0fa 523d
00000220: fb7a 1bbf dd55 26bf d071 983f 7f16 11bf
00000230: 22b0 a4be 418f 10be 6838 983d 9ad1 ab3f
00000240: 9459 013e 899d b43f 7785 fe3e a409 69be
00000250: 734e 7fbf a8e4 8ebe 9e9c 1bbf f8b4 93bd
00000260: 4f8a 1e40 9b37 edbf 4dd9 803f 9222 1d3f
00000270: b253 18be 3442 503f 91e5 a9bf 5d6f 16be
00000280: 5ec3 2fbf a767 00bf 2382 03be 2b6f 8abf
00000290: 8f4f 60be 7d57 af3f b910 913f f160 d0bf
000002a0: 0e37 8ebe df51 51be dbf9 4ebe b32b b43f
000002b0: f41f a93e 3c2f 8ebe fb86 f9be 05ff dabd
000002c0: 3409 26bd 5c73 b1bf 790d 6abe 2a73 c23f
000002d0: a72f 43be f437 393e 2cc6 523f b352 63be
000002e0: 93ac 1ebe 8325 a0be bbd5 08c0 ca1c 7abf
000002f0: cb69 60bd 55a8 31bf 4bf8 d0be 6950 fd3d
00000300: 7d59 7e3e 6261 b53c 53fd 033f ee2e c1be
00000310: f25c 4ebf 9d2f 97bf 469a 033f eb12 853f
00000320: 5c61 133f 0bf9 efbe 4583 bc3f 2a12 05bf
00000330: d085 51bf 01b3 ebbe f78e 453d 7c00 ad3e
00000340: 06cf 603e a145 963f 4a7e d53e 0c11 05c0
00000350: 06b3 c8be ed1d 9bbf 68f8 97bf c3ef 643f
00000360: 4e72 b03f 7fdf 90bf 47f3 1940 8d30 b33f
00000370: 19ae 973e 5239 673f 6342 963f e956 c2bf
00000380: 3106 ab3f 2d76 593f beb7 923f a3bb 913f
00000390: 4d98 0a3e 80d2 c6be ec8e 8fbf 7db6 21c0
000003a0: 4753 d4bf eecb 7b3f cc15 28c0 67f5 b03f
000003b0: d459 3bbf aebc 64bf aac1 8fbf d37f 423f
000003c0: 7903 8dbe 6494 f43d 84da 96bf 3532 bf3f
000003d0: a9b6 fe3c 3f26 1d3c e2d4 593f a806 92bf
000003e0: 6461 69bf 8eac 983e b4ab 13c0 004d 0ec0
000003f0: 3073 883f 080e 343f 6cce 953e 9e2a 19bf
-0.23621733 -1.540713 -0.7816219 0.54495054 -0.5888495 -0.9232719 0.12469296 -0.3064428
0.3692305 0.56083083 1.0982645 -0.71608925 -1.0171812 -0.01941392 1.6639022 0.84084237
0.2494242 0.8569867 -0.14289631 1.1646296 -0.39460176 -0.71310025 -0.024421813 0.22899449
-0.82335943 -0.52829385 -1.6234831 -0.30284572 0.9623929 0.109846175 2.4048862 -1.1077253
0.1995021 0.5803041 0.37286854 1.0488881 -0.5553351 -0.4235654 -0.42435792 -0.10304023
0.51502967 -0.07707759 1.0919507 -0.06527789 -0.29356813 -0.49576658 0.48787206 -0.53352934
-0.67803967 0.35304347 -0.80923474 -0.9859414 0.04482647 0.13253097 -1.6520903 0.8314162
0.22567524 -0.64554167 -0.7956555 -0.1786654 -0.3331544 0.19115786 -1.1410744 0.41827303
0.7903517 0.7519057 0.17208476 -0.3877352 0.041871104 1.9681509 -1.1520554 0.5649221
0.45707768 0.035158917 -0.09510643 0.6192745 2.065983 0.1875877 -1.004565 0.64505786
0.6842614 -0.18039638 0.9017598 -1.8092892 0.18221334 -0.759491 -0.9727639 -0.6130387
0.10597224 0.34892067 1.6372246 -2.5927718 -1.0317551 0.1983299 1.4238734 0.13551867
1.518181 -0.6144816 0.43708128 0.28383324 -1.1390345 0.39185816 1.1695247 1.9026718
-0.22596806 -0.52136827 -0.44430777 0.64123416 0.008220722 0.94384825 0.32692915 -1.0699234
1.5051455 -0.26456705 0.28186494 -0.81425786 -0.042351596 -0.5111315 -0.9136095 -0.4182553
1.0890319 -0.435393 0.53752375 -0.7090271 2.0795825 -1.1058664 1.6358801 -0.25674567
1.0563248 0.8416507 0.23176907 -0.19281961 -0.40007082 -1.1087134 0.4656501 0.051508605
-0.6073453 -0.64974767 1.1909733 -0.5667495 -0.3216563 -0.14117147 0.07432634 1.342334
0.12631828 1.4110576 0.497112 -0.22757584 -0.9972908 -0.27908826 -0.60785854 -0.072122514
2.4771917 -1.8532594 1.0066315 0.61380875 -0.14875677 0.8135102 -1.3273183 -0.14690919
-0.6865748 -0.5015816 -0.12842612 -1.0815176 -0.21905349 1.3698574 1.1333228 -1.6279584
-0.27776378 -0.20441388 -0.202125 1.4075836 0.3303219 -0.27770412 -0.48735794 -0.10693172
-0.04053612 -1.386333 -0.22856702 1.5191395 -0.19061147 0.1808775 0.82333636 -0.22199516
-0.1549552 -0.3127862 -2.138045 -0.9770018 -0.054788392 -0.6939748 -0.40814433 0.12368853
0.24838825 0.022141162 0.5155842 -0.37731117 -0.80610573 -1.1811405 0.5140728 1.0396398
0.57570434 -0.46869692 1.472756 -0.5198084 -0.81844807 -0.46035007 0.048232045 0.33789432
0.21953973 1.1739999 0.41697913 -2.0791655 -0.39199084 -1.2118508 -1.1872683 0.8942835
1.3784883 -1.1318206 2.4054735 1.3999192 0.29625013 0.9032184 1.173901 -1.5182773
1.3361264 0.84945947 1.1462324 1.1385387 0.1353466 -0.38832474 -1.1215491 -2.5267632
-1.6587914 0.98358047 -2.6263304 1.3824891 -0.7318394 -0.893504 -1.1230977 0.75976294
-0.27541712 0.11942366 -1.1785436 1.4937197 0.031092959 0.009591638 0.8509046 -1.1408281
-0.9116423 0.2981915 -2.307355 -2.2234497 1.0660152 0.7033391 0.2925905 -0.59830654
